…
from keras import models 
 
model = models.Sequential() 
model.add(layers.Conv2D(32, (3, 3), activation='relu', input_shape=(28, 28, 1))) 
model.add(layers.MaxPooling2D((2, 2))) 
model.add(layers.Conv2D(64, (3, 3), activation='relu')) 
model.add(layers.MaxPooling2D((2, 2))) 
model.add(layers.Conv2D(64, (3, 3), activation='relu'))
1
2
3
4
5
6
7
8
9
10
11
12
13
14
15
16
17
>>> model.summary() 
________________________________________________________________ 
Layer (type)                     Output Shape          Param # 
================================================================ 
conv2d_1 (Conv2D)                (None, 26, 26, 32)    320 
________________________________________________________________ 
maxpooling2d_1 (MaxPooling2D)    (None, 13, 13, 32)    0 
________________________________________________________________ 
conv2d_2 (Conv2D)                (None, 11, 11, 64)    18496 
________________________________________________________________ 
maxpooling2d_2 (MaxPooling2D)    (None, 5, 5, 64)      0 
________________________________________________________________ 
conv2d_3 (Conv2D)                (None, 3, 3, 64)      36928 
================================================================ 
Total params: 55,744 
Trainable params: 55,744 
Non-trainable params: 0
Listing 5.2. Adding a classi×er on top of the convnet
1
2
3
model.add(layers.Flatten()) 
model.add(layers.Dense(64, activation='relu')) 
model.add(layers.Dense(10, activation='softmax'))
1
2
3
4
5
>>> model.summary() 
Layer (type)                     Output Shape          Param # 
================================================================ 
conv2d_1 (Conv2D)                (None, 26, 26, 32)    320 
________________________________________________________________ 

Figure 5.1. Images can be broken into local patterns such as edges, textures, and so on.
6
7
8
9
10
11
12
13
14
15
16
17
18
19
20
21
22
maxpooling2d_1 (MaxPooling2D)    (None, 13, 13, 32)    0 
________________________________________________________________ 
conv2d_2 (Conv2D)                (None, 11, 11, 64)    18496 
________________________________________________________________ 
maxpooling2d_2 (MaxPooling2D)    (None, 5, 5, 64)      0 
________________________________________________________________ 
conv2d_3 (Conv2D)                (None, 3, 3, 64)      36928 
________________________________________________________________ 
flatten_1 (Flatten)              (None, 576)           0 
________________________________________________________________ 
dense_1 (Dense)                  (None, 64)            36928 
________________________________________________________________ 
dense_2 (Dense)                  (None, 10)            650 
================================================================ 
Total params: 93,322 
Trainable params: 93,322 
Non-trainable params: 0
Listing 5.3. Training the convnet on MNIST images
1
2
3
4
5
6
7
8
9
10
11
12
13
14
15
16
17
from keras.datasets import mnist 
from keras.utils import to_categorical 
 
(train_images, train_labels), (test_images, test_labels) = mnist.load_data() 
train_images = train_images.reshape((60000, 28, 28, 1)) 
…
model.add(layers.MaxPooling2D((2, 2))) 
model.add(layers.Conv2D(128, (3, 3), activation='relu')) 
model.add(layers.MaxPooling2D((2, 2))) 
model.add(layers.Conv2D(128, (3, 3), activation='relu')) 
model.add(layers.MaxPooling2D((2, 2))) 

14
15
16
model.add(layers.Flatten()) 
model.add(layers.Dense(512, activation='relu')) 
model.add(layers.Dense(1, activation='sigmoid'))
1
2
3
4
5
6
7
8
9
10
11
12
13
14
15
16
17
18
19
20
21
22
23
24
25
26
27
28
>>> model.summary() 
Layer (type)                     Output Shape          Param # 
================================================================ 
conv2d_1 (Conv2D)                (None, 148, 148, 32)  896 
________________________________________________________________ 
maxpooling2d_1 (MaxPooling2D)    (None, 74, 74, 32)    0 
________________________________________________________________ 
conv2d_2 (Conv2D)                (None, 72, 72, 64)    18496 
________________________________________________________________ 
maxpooling2d_2 (MaxPooling2D)    (None, 36, 36, 64)    0 
________________________________________________________________ 
conv2d_3 (Conv2D)                (None, 34, 34, 128)   73856 
________________________________________________________________ 
maxpooling2d_3 (MaxPooling2D)    (None, 17, 17, 128)   0 
________________________________________________________________ 
conv2d_4 (Conv2D)                (None, 15, 15, 128)   147584 
________________________________________________________________ 
maxpooling2d_4 (MaxPooling2D)    (None, 7, 7, 128)     0 
________________________________________________________________ 
flatten_1 (Flatten)              (None, 6272)          0 
________________________________________________________________ 
dense_1 (Dense)                  (None, 512)           3211776 
________________________________________________________________ 
dense_2 (Dense)                  (None, 1)             513 
================================================================ 
Total params: 3,453,121 
Trainable params: 3,453,121 
Non-trainable params: 0
Listing 5.6. Con×guring the model for training
1
2
3
4
5
from keras import optimizers 
 
model.compile(loss='binary_crossentropy', 
              optimizer=optimizers.RMSprop(lr=1e-4), 
              metrics=['acc'])
Listing 5.7. Using ImageDataGenerator to read images from directories
…
Figure 5.13. Training and validation loss with data augmentation
Figure 5.14. Swapping classi×ers while keeping the same convolutional base

Listing 5.16. Instantiating the VGG16 convolutional base
1
2
3
4
5
from keras.applications import VGG16 
 
conv_base = VGG16(weights='imagenet', 
                  include_top=False, 
                  input_shape=(150, 150, 3))
1
2
3
4
5
6
7
8
9
10
11
12
13
14
15
16
17
18
19
20
21
22
23
24
25
26
27
28
29
>>> conv_base.summary() 
Layer (type)                     Output Shape          Param # 
================================================================ 
input_1 (InputLayer)             (None, 150, 150, 3)   0 
________________________________________________________________ 
block1_conv1 (Convolution2D)     (None, 150, 150, 64)  1792 
________________________________________________________________ 
block1_conv2 (Convolution2D)     (None, 150, 150, 64)  36928 
________________________________________________________________ 
block1_pool (MaxPooling2D)       (None, 75, 75, 64)    0 
________________________________________________________________ 
block2_conv1 (Convolution2D)     (None, 75, 75, 128)   73856 
________________________________________________________________ 
block2_conv2 (Convolution2D)     (None, 75, 75, 128)   147584 
________________________________________________________________ 
block2_pool (MaxPooling2D)       (None, 37, 37, 128)   0 
________________________________________________________________ 
block3_conv1 (Convolution2D)     (None, 37, 37, 256)   295168 
________________________________________________________________ 
block3_conv2 (Convolution2D)     (None, 37, 37, 256)   590080 
________________________________________________________________ 
block3_conv3 (Convolution2D)     (None, 37, 37, 256)   590080 
________________________________________________________________ 
block3_pool (MaxPooling2D)       (None, 18, 18, 256)   0 
________________________________________________________________ 
block4_conv1 (Convolution2D)     (None, 18, 18, 512)   1180160 
________________________________________________________________ 
block4_conv2 (Convolution2D)     (None, 18, 18, 512)   2359808 

30
31
32
33
34
35
36
37
38
39
40
41
42
43
44
45
________________________________________________________________ 
block4_conv3 (Convolution2D)     (None, 18, 18, 512)   2359808 
________________________________________________________________ 
block4_pool (MaxPooling2D)       (None, 9, 9, 512)     0 
________________________________________________________________ 
block5_conv1 (Convolution2D)     (None, 9, 9, 512)     2359808 
________________________________________________________________ 
block5_conv2 (Convolution2D)     (None, 9, 9, 512)     2359808 
________________________________________________________________ 
block5_conv3 (Convolution2D)     (None, 9, 9, 512)     2359808 
________________________________________________________________ 
block5_pool (MaxPooling2D)       (None, 4, 4, 512)     0 
================================================================ 
Total params: 14,714,688 
Trainable params: 14,714,688 
Non-trainable params: 0
Listing 5.17. Extracting features using the pretrained convolutional base
1
2
3
4
5
6
7
8
9
10
11
12
13
14
15
16
17
18
19
20
21
22
23
24
25
26
27
28
29
30
31
32
33
import os 
import numpy as np 
from keras.preprocessing.image import ImageDataGenerator 
…
        batch_size=20, 
        class_mode='binary') 
 
test_loss, test_acc = model.evaluate_generator(test_generator, steps=50) 
print('test acc:', test_acc)
1
2
3
4
5
6
7
8
9
10
11
12
13
14
15
16
17
18
19
20
21
22
23
24
25
26
27
28
29
30
31
32
33
34
>>> from keras.models import load_model 
>>> model = load_model('cats_and_dogs_small_2.h5') 
>>> model.summary()  <1> As a reminder. 
________________________________________________________________ 
Layer (type)                     Output Shape          Param # 
================================================================ 
conv2d_5 (Conv2D)                (None, 148, 148, 32)  896 
________________________________________________________________ 
maxpooling2d_5 (MaxPooling2D)    (None, 74, 74, 32)    0 
________________________________________________________________ 
conv2d_6 (Conv2D)                (None, 72, 72, 64)    18496 
________________________________________________________________ 
maxpooling2d_6 (MaxPooling2D)    (None, 36, 36, 64)    0 
________________________________________________________________ 
conv2d_7 (Conv2D)                (None, 34, 34, 128)   73856 
________________________________________________________________ 
maxpooling2d_7 (MaxPooling2D)    (None, 17, 17, 128)   0 
________________________________________________________________ 
conv2d_8 (Conv2D)                (None, 15, 15, 128)   147584 
________________________________________________________________ 
maxpooling2d_8 (MaxPooling2D)    (None, 7, 7, 128)     0 
________________________________________________________________ 
flatten_2 (Flatten)              (None, 6272)          0 
________________________________________________________________ 
dropout_1 (Dropout)              (None, 6272)          0 
________________________________________________________________ 
dense_3 (Dense)                  (None, 512)           3211776 
________________________________________________________________ 
dense_4 (Dense)                  (None, 1)             513 
================================================================ 
Total params: 3,453,121 
Trainable params: 3,453,121 
Non-trainable params: 0

Figure 5.24. The test cat picture
Listing 5.25. Preprocessing a single image
1
2
3
4
5
6
7
8
9
10
11
12
img_path = '/Users/fchollet/Downloads/cats_and_dogs_small/test/cats/cat.1700.jpg' 
 
from keras.preprocessing import image 
import numpy as np 
 
img = image.load_img(img_path, target_size=(150, 150)) 
…
